model_zoo/team18_SGSDN.pth (torch, 977347 bytes, 744 tensors)

fea_conv.weight f4 [24, 3, 3, 3]
000000 a6 ff f4 3c 3a ef c0 3d 6f 9c b4 3c 19 cd c0 bc
       0.029907059 0.09420629 0.02204725 -0.023535298
000010 f5 8f e1 bd b6 3e cb bc 0e d7 8d 3c 34 96 2b 3d
       -0.11013786 -0.024810176 0.01731446 0.04189129
000020 09 1c 38 bc fa 80 4c bd 61 b1 ad bd fd 4f 57 bc
       -0.011237153 -0.04992769 -0.08481098 -0.013141629
000030 62 91 18 3d ae cf db 3d f4 bc 96 bc 60 65 32 ba
       0.037248023 0.10732971 -0.018400647 -0.0006805267
000040 3d 96 92 bc 45 9e 02 3d 0a 4c 83 3c 1d d5 cc 3d
       -0.017893905 0.03188922 0.01602747 0.10001586
000050 dd 11 2b ba d6 2f 0a bb e5 1e ff bd f4 21 6a 3c
       -0.0006525794 -0.0021085641 -0.124570645 0.014290322
000060 bd 91 8f 3b 13 8c 96 3b 1b 28 8f 3a 59 ff 60 bc
       0.004381387 0.004594335 0.0010921987 -0.013732755
000070 02 b9 33 be 63 95 b4 ba 1f 20 89 3d ad 20 5c 3e
       -0.17551044 -0.0013777431 0.0669558 0.2149684
000080 42 bb 5f bd c9 27 b8 3c 59 ed 28 3d 9c 7f de bc
       -0.054621942 0.022479909 0.041241977 -0.027160458
000090 2a af d5 bc c5 a9 11 be ad be 00 bd 12 b6 c9 3b
       -0.026084501 -0.14224918 -0.031431843 0.0061557377
0000a0 32 63 60 3e 9b b0 dc ba a8 28 c6 bc aa 11 25 bd
       0.2191284 -0.00168373 -0.024189308 -0.04030005
0000b0 56 94 b9 bb 7f 12 35 3c a4 b1 a8 3e ee 02 b5 3c
       -0.005663435 0.011051773 0.3294803 0.022096124
0000c0 7e 8c c1 bd a8 d8 8c be ab d5 95 3d c8 e9 cd bc
       -0.09450625 -0.27509046 0.073161446 -0.02513589
0000d0 77 38 80 bc f7 e6 e1 3b 29 cf e9 bc 7f 41 fe bd
       -0.015651925 0.0068939882 -0.028541164 -0.12414836
0000e0 ed 84 ac bc a1 2d 69 bd dc 7e fa 3e 7d a0 a2 bd
       -0.021059478 -0.05692828 0.4892491 -0.07940767
0000f0 6e f5 1f bd d6 da b3 bd 6a 15 13 bc 39 e5 bf 3c
       -0.03905242 -0.08781974 -0.0089772735 0.023424732
000100 78 12 b0 3e bf 5a 07 39 c8 e9 17 3d 8b fd c1 be
       0.3438909 0.00012908409 0.037088186 -0.3788875
000110 74 5f 89 3c 06 0b 91 3c 6b 5b 44 ba 45 e9 be bc
       0.016769148 0.017705452 -0.0007490429 -0.023304591
000120 70 e1 f8 3c dd 9e 84 3e 97 7f 25 3c d1 0b 01 3e
       0.030380934 0.25902453 0.010101221 0.12602164
000130 1d f5 06 bf dc 2d b3 3c 03 db 2f 3c 48 dd 51 39
       -0.52717763 0.021872453 0.010733369 0.00020014227
000140 1b 69 5a 3c 81 5b b3 3c 7a 31 56 3e ee 71 89 bb
       0.013330723 0.021894218 0.20917311 -0.0041944897
000150 d1 cb 56 3d ba 50 9f be 05 71 a5 3d 6c fe bd bc
       0.05244047 -0.31116277 0.080781974 -0.023192607
000160 84 9d 0f 3d a3 7a 0a bd 47 e1 7b bd 91 54 de 3d
       0.035062328 -0.03380836 -0.061494138 0.108559735
000170 c0 e3 01 3d a9 42 52 bd 9c 81 9f be cc 10 27 3e
       0.03171134 -0.051333103 -0.31153572 0.16315001
000180 be 74 a8 bc a4 d7 c5 3d 7e fd 13 3d 3e cb b6 3c
       -0.02056348 0.09660271 0.03613042 0.02231371
000190 eb 33 0e be 07 5b 64 bd c3 f1 86 3d 5a 5d 83 3e
       -0.13886993 -0.055750873 0.06589081 0.2565716
0001a0 30 d1 e5 bd 52 dd 8e 3c 3b 3b 49 bd 81 a8 83 bb
       -0.1122154 0.017439518 -0.049128752 -0.00401789
0001b0 f8 c2 8c 3c 08 d8 f7 3c 20 5d 5c 3d 0b e2 01 be
       0.017182812 0.030254379 0.05379975 -0.12683885
0001c0 a5 1b d0 3e 20 01 f2 bd 33 a5 74 bd 00 67 2d be
       0.4064609 -0.11816621 -0.05972786 -0.16933823
0001d0 1b 5a c6 bc 04 b7 0e 3d c4 f0 c6 bd 33 86 bf bd
       -0.024212888 0.034842506 -0.09713891 -0.09351768
0001e0 f2 12 9a 3d 98 35 72 3e 20 d0 70 be e3 47 b2 3c
       0.07523145 0.23653257 -0.23516893 0.021762794
0001f0 a6 b1 e1 3c 05 2a a9 bc a0 f5 5c bd de c4 1a bd
       0.02755053 -0.02064992 -0.053945184 -0.037785403
000200 5c ac f0 bb 12 ab ed 3d 2b 4c 90 be 25 67 12 3e
       -0.0073447656 0.11604895 -0.28183112 0.14297159
000210 dc a0 43 3c 45 9d 33 3d 7c 9a f1 3c 2f 3f 8b bb
       0.011940207 0.043851156 0.02949261 -0.0042494754
000220 a0 8d 86 3e 5f ae a8 3b 39 6f a6 3d 9a 83 20 bf
       0.26279926 0.00514774 0.08126683 -0.6270081
000230 74 f6 3d 3e 4f b6 aa bc 33 f1 c3 3d 5f fe c6 3c
       0.18551046 -0.020838885 0.095674895 0.024291215
000240 44 24 02 3b 9b 3f 98 3d ae 16 2d 3c e8 44 87 bd
       0.0019858042 0.07434007 0.010564489 -0.0660494
000250 3b bc 34 3e 1d b3 a3 bd 84 5b e5 bc 3a cd 18 3c
       0.17649929 -0.079931475 -0.02799774 0.009326274
000260 36 58 1d bd 38 95 ff bb fb 41 6c be 58 ed f0 bc
       -0.038414203 -0.0077997707 -0.23072045 -0.02941005
000270 70 ee 6a 3d 77 d9 be 3e f4 8e d3 bd 9e 14 f8 3c
       0.057356298 0.37275288 -0.103300005 0.030283269
000280 a1 35 bd bd f1 eb d7 ba 06 a9 24 bd 75 1b b2 bc
       -0.092387445 -0.0016473514 -0.040200256 -0.021741608
000290 c3 b1 c7 bc 0f 15 c4 bc 8a 81 8d 3d 2b 3a 81 bc
       -0.024376756 -0.023935823 0.06909473 -0.015774807
0002a0 ec 33 86 3c 01 62 3b 3d f2 ab bb bc 0a 39 f5 bc
       0.01638218 0.04574776 -0.022909138 -0.029934425
0002b0 53 ea c8 3d 14 fe e2 bc 09 7b 74 3d 02 c3 15 be
       0.09810319 -0.027709045 0.059687648 -0.14625171
0002c0 1e 84 07 3d cf 59 48 bd 1f 29 97 3d 72 3c 18 bd
       0.03308498 -0.048913773 0.0738089 -0.03716702
0002d0 5a 70 47 3c cb 3b 97 bb 81 5a c3 3c 63 16 0c bd
       0.012172783 -0.004615282 0.023846867 -0.034201037
0002e0 61 f1 98 bc 6c 7f d9 3c d6 56 39 bb cd 65 5f bc
       -0.018669786 0.026550017 -0.0028280518 -0.013635111
0002f0 e5 dc 6c 3b aa a4 80 bb 5d 7b a3 3e 27 ea af bc
       0.0036142406 -0.0039258795 0.31930056 -0.021473957
000300 9f f7 0c 3d b5 ac ab be 63 df 18 3b ab b4 03 ba
       0.034415837 -0.33530203 0.0023326508 -0.0005024175
000310 52 bc 86 3d 88 4e aa bc 62 b6 57 bd 96 a4 06 bf
       0.06578888 -0.0207894 -0.05266417 -0.5259489
000320 2e 96 db bc b8 77 6e 3c 5d 45 07 3f 71 19 a1 3d
       -0.02680501 0.01455491 0.52840215 0.07866181
000330 e6 4b 02 bc 09 e3 5c bd d0 f7 ca bb 24 14 d4 3c
       -0.007952666 -0.053927455 -0.0061940923 0.02588851
000340 1c 01 48 3e a9 08 74 3c b9 4a ed 3b f8 3e b0 be
       0.19531673 0.014894643 0.0072415737 -0.3442304
000350 7c 80 11 3d b8 2b 3b 3b 1e 1e b1 3c b7 f0 62 3c
       0.035522923 0.0028559994 0.021620806 0.013851336
000360 92 96 66 3a 2b 09 51 3c 56 3c 14 bb f6 2f 59 3b
       0.00087962404 0.0127585335 -0.002261897 0.003314016
000370 5a b5 5e 3e 00 2c 79 bc a4 05 d3 3b 4d c5 95 bc
       0.21748868 -0.015208244 0.0064398814 -0.018282557
000380 ff 9c f3 3a bc a5 9e bb 9c 03 c7 bc a5 13 01 bc
       0.0018586217 -0.0048415344 -0.024293713 -0.007878219
000390 68 34 1f 3d fe b9 85 3e 0b b5 3b 3b 6f aa 3a bc
       0.038868338 0.26118463 0.0028641846 -0.011393174
0003a0 8f 61 c5 bc e2 a1 87 bc f6 7a 72 3a 86 45 6b 3c
       -0.024094371 -0.016556684 0.000924989 0.014359837
0003b0 89 70 f4 bb ac 8f 5b bc ad 62 7e 3e f0 85 ff bc
       -0.0074597043 -0.013400953 0.2484233 -0.031191796
0003c0 2c fa e5 bb 62 13 af bc 81 30 91 3b d9 a9 2b 3d
       -0.007018348 -0.021371547 0.004430831 0.041910026
0003d0 61 32 26 3e ef cd 18 3d b5 ad 0c 3e 42 4b 46 bf
       0.16230156 0.03730577 0.13738139 -0.77458584
0003e0 d1 7b 86 3d 30 da 4e 3d a2 cd c2 3d 53 e0 2a 3d
       0.06566585 0.05050105 0.095118776 0.04171784
0003f0 bf f2 8c 3c 56 c1 b5 3d 77 50 2d bd 30 1b 41 3e
       0.017205594 0.088747665 -0.042313065 0.18858027

fea_conv.bias f4 [24]
000000 bd fd 89 3c 7d e5 21 3f 67 b7 ea 3d df 5d 8f bc
       0.016844625 0.63240796 0.114607625 -0.017500816
000010 98 21 b1 bc d3 86 cc 3e c5 50 3a be 05 ab 19 3d
       -0.021622464 0.39946613 -0.18194874 0.037516613
000020 58 1d fd 3c c9 ed af bc 63 22 1f bf 25 9e 89 3d
       0.030897781 -0.02147569 -0.62161845 0.06719617
000030 ba ad 02 3b d8 d0 08 bd f7 2f a8 3e 9f eb 8c 3c
       0.0019939975 -0.033402294 0.32849094 0.017202197
000040 bd 8e 31 3b 70 c2 36 3c 0d 3e 64 3e b6 c7 82 3d
       0.0027093135 0.011154756 0.22289295 0.06385748
000050 a4 7b de bc 89 31 35 3e aa 43 04 be 44 df 17 bd
       -0.027158566 0.17694677 -0.12916437 -0.037078157

feats.0.VA1.conv_0.weight f4 [24, 1, 3, 3]
000000 91 0d 2d 3d 26 d6 ff be 5e c9 d1 bc b9 cf 9d bd
       0.042249266 -0.4996807 -0.025608715 -0.077056356
000010 00 9f 86 c0 48 eb 10 be 63 12 85 bd cd d4 67 be
       -4.206909 -0.14152253 -0.064976476 -0.22639771
000020 ef 89 66 bd 88 30 4e 3e 84 c2 41 3e 6f bb 51 3e
       -0.056283887 0.201357 0.18921858 0.20481656
000030 c1 46 b0 be 96 4e 65 40 bf e6 85 be 07 45 09 3e
       -0.3442898 3.5829215 -0.26152608 0.13405238
000040 48 0c f0 3e 4d 6f 39 3e 56 50 29 3d 78 9a 1e 3e
       0.4688437 0.18108864 0.04133638 0.15488613
000050 39 2f 89 3c c6 17 f1 3c ac ac 35 40 e6 6f 81 3c
       0.01674615 0.029430281 2.838664 0.015800428
000060 4a ac 4f bc 52 95 98 3c e6 f1 fe 3b 2d 44 48 3e
       -0.012675354 0.018625889 0.0077803014 0.19557257
000070 c1 ff c9 3e ba 43 ba 3d 49 3a 25 3e 4d 5c b0 3f
       0.39452937 0.09094949 0.16135515 1.3778168
000080 35 97 38 be 02 e5 0b 3d 68 c4 01 3f af 2a 89 bd
       -0.18026431 0.034153946 0.5069032 -0.066975944
000090 88 a8 e1 3c ed f5 34 3f 98 79 2c 3d a2 e6 7a bf
       0.027546182 0.7068775 0.04210815 -0.9800817
0000a0 a9 0b 6a 3f b0 8e 50 bf 90 f3 c7 be 97 76 3d 3e
       0.9142404 -0.81467724 -0.3905301 0.1850227
0000b0 95 4e 80 be fc 21 07 bd 26 7a 96 40 1d 28 f6 be
       -0.25059953 -0.032991394 4.7024107 -0.4807748
0000c0 db 8c 3c 3f c8 70 21 40 1e b3 2f 3f 3a d8 8c bb
       0.7365243 2.5225086 0.68632686 -0.004298237
0000d0 47 3d aa 3e 21 ee ba bd b3 c4 a1 bd 37 44 8d 3e
       0.33249876 -0.09127451 -0.078988455 0.27591106
0000e0 b6 d9 c1 bc af f8 3d 3d 43 ee a8 c0 db 92 3f 3e
       -0.023663383 0.04637974 -5.2790847 0.18708365
0000f0 71 c9 8b 3d 03 f3 77 3e 15 91 cf bc c3 19 1c 3d
       0.06825531 0.24213795 -0.025337735 0.038110506
000100 a3 e3 a7 be 5e e4 cc 3d d0 df 24 bd e9 45 e6 3e
       -0.3279086 0.10004495 -0.040252507 0.44975212
000110 0c a8 24 be f9 e5 86 be dc 80 39 be a2 79 88 be
       -0.1607973 -0.2634733 -0.18115562 -0.26655298
000120 91 ed 13 3e 31 b5 f0 be 8c d6 ec 3d a8 df 60 be
       0.14446093 -0.47013238 0.11564359 -0.21960318
000130 68 bb 48 40 21 99 e2 bd 01 29 02 bd 14 45 41 be
       3.1364384 -0.11064363 -0.031777386 -0.18874007
000140 a3 0d 33 3c 58 32 5a bd 4b 2a 95 3d 85 36 21 bd
       0.010928544 -0.053270668 0.07283457 -0.039358635
000150 9a 25 55 3d e6 34 77 3f 3f 32 66 3d 82 3b 10 3c
       0.052037813 0.9656509 0.056200262 0.00880325
000160 db 39 a7 3d a9 64 84 bb f3 9f 2a 3e 9a 88 8f 3e
       0.08165332 -0.00404032 0.16662578 0.28033906
000170 75 19 14 3e 17 3c f8 3e f9 95 99 3f a3 01 eb 3e
       0.14462836 0.48483345 1.1998893 0.45899686
000180 db d1 10 3e b2 05 e1 3e 86 7d 3b 3e 5a 31 0f be
       0.14142554 0.43949658 0.18309602 -0.1398367
000190 31 ce 86 c0 cd 87 85 bd bc a6 5d be 0d d4 be bf
       -4.21267 -0.065200426 -0.21645635 -1.4908463
0001a0 b6 a6 44 3d 7b 20 9d 3d 3a 2f ba 3e c7 27 59 bd
       0.04801055 0.07672211 0.36364156 -0.05301645
0001b0 b0 6a 24 be 31 c6 82 40 1a ea 68 be 22 3d f9 3e
       -0.16056323 4.0866933 -0.22745553 0.48679453
0001c0 ff 77 81 40 7b ff 2f 3e 55 bf de bd 4e 52 e8 3c
       4.045898 0.17187302 -0.108763374 0.028359558
0001d0 92 04 8d be a9 a4 6d be 31 e7 9e bd 45 2c 81 be
       -0.2754255 -0.23207344 -0.0775894 -0.25229087
0001e0 fc 99 03 bf a8 7b 9f c0 89 a1 40 bf e4 a2 8c be
       -0.51406837 -4.9838448 -0.75246483 -0.27468026
0001f0 e3 6f 6f bf 7e d9 ce be 09 8e 6d bd 47 56 a0 3d
       -0.935301 -0.40400308 -0.057996783 0.07828956
000200 14 8a 7a bd 66 56 11 3d 8a ba b8 3f 16 30 b8 3d
       -0.061166838 0.035482787 1.4431927 0.08993547
000210 ff f3 68 3d 12 a4 b5 3d 4d d8 cd 3b 33 9f 14 be
       0.056873318 0.088691846 0.0062818886 -0.14513855
000220 76 08 15 3d 4a 47 22 bd 1b 5f 83 3e 6a f1 48 bf
       0.036385022 -0.039618768 0.25658497 -0.7849337
000230 3b 44 0d 3e 60 f8 64 3d 6e 4e 73 3e 80 f6 c8 3c
       0.13795559 0.05590093 0.23760387 0.024531603
000240 00 cd cf 3c a8 ab bb 3d 19 42 40 3d 40 db bc 3d
       0.025366306 0.091636 0.046938036 0.09221506
000250 1d 76 85 3f 9f be b4 3d f2 0d 14 3d 4b 0d 4f 3b
       1.042667 0.088254206 0.03614611 0.0031593617
000260 8e c4 80 3d e0 de b9 bd 4d 61 00 3e cf ee 28 bf
       0.0628749 -0.09075713 0.12537117 -0.65989393
000270 da 4c d7 3e 18 35 4e 3e d5 60 19 40 b3 cf e6 3d
       0.4205082 0.20137441 2.3965352 0.11270084
000280 fe 10 a8 3d bb e0 37 be 61 e3 78 3e f2 c5 6e bf
       0.08206366 -0.17956822 0.24305488 -0.9327079
000290 9b fb 56 3f 6f 90 a9 be f2 ae 4a c0 1e 07 c0 bf
       0.8397767 -0.33118007 -3.1669278 -1.5002172
0002a0 e6 e6 61 bd 4f 2d 89 bf 1e 7f 71 3f 90 3d 6f bf
       -0.055151843 -1.0716952 0.9433459 -0.9345331
0002b0 df 0d e3 3f 8b ff 73 bf fe be 9f be 41 d8 7f c0
       1.7738608 -0.953118 -0.31200403 -3.997574
0002c0 a6 b5 57 bf 48 41 bc 3f e2 fb 5a c0 dc e0 95 3f
       -0.8426155 1.4707422 -3.4216237 1.1709247
0002d0 df e2 76 3d c7 12 35 3d 2d 5b 77 3e e9 9a 36 3f
       0.060274955 0.04420736 0.24155875 0.71330124
0002e0 9f bf 35 40 2d 04 67 3f e9 7a 0c 3d d1 62 00 3f
       2.8398206 0.90240747 0.034296904 0.5015078
0002f0 56 e2 aa 3e 6b 35 61 3c 66 07 e9 be 4d 8f dd bd
       0.33375806 0.013745646 -0.45513457 -0.10818348
000300 da 06 6e bd e2 1f 0b bf 28 0a 90 be 1e 59 f1 3d
       -0.058112003 -0.54345524 -0.2813275 0.11784576
000310 2b 58 53 bd a7 40 81 3b ff 97 51 be a9 6e 7d 3e
       -0.051597755 0.0039444747 -0.20468138 0.24749245
000320 86 87 35 be 7b 9a 95 be ee ce af 3f a3 1f 2c be
       -0.1772748 -0.29219422 1.3735025 -0.16808943
000330 29 2e 25 be 69 f6 89 be 95 56 59 be 16 75 a1 3f
       -0.1613089 -0.2694581 -0.21224435 1.2613857
000340 18 12 df 3b 71 a9 72 be c7 22 98 40 22 0f 66 3e
       0.006807577 -0.2369745 4.7542453 0.2246671
000350 ae 0b 6a bf f7 45 9e 3f 23 e2 1f bf a6 6a 57 be
       -0.9142407 1.2365102 -0.6245443 -0.21036777

feats.0.VA1.conv_0.bias f4 [24]
000000 c4 4b 33 bf 34 c5 97 be b2 6a 71 3f 3d da 20 bc
       -0.70037484 -0.29642642 0.9430343 -0.009817657
000010 74 be a5 bf 8c 41 dc 3e b6 df 49 bf 5a c0 2a 40
       -1.2948747 0.43018758 -0.7885698 2.6679902
000020 fa 46 b3 bf 4b 07 67 bf b8 6e ca bf b6 bb 06 3f
       -1.4006035 -0.90245503 -1.5815039 0.52630174
000030 04 e0 8d 3f 96 b8 f8 3f a4 0d d8 bd ec 4a aa bf
       1.1083989 1.9431331 -0.10549477 -1.3304114
000040 ca 70 76 bf ba cc 3e 3d 4e 03 27 bb 0b 0b 6e bf
       -0.9626585 0.04658196 -0.0025484147 -0.929856
000050 48 1e 0c c0 6b a0 3f be 6b d5 e8 bf c5 36 13 bf
       -2.1893482 -0.18713538 -1.819013 -0.57505447

feats.0.VA1.conv_1.weight f4 [12, 24, 1, 1]
000000 c3 05 82 3e 92 c9 03 bf 15 a6 b8 3d 0d ea 52 3e
       0.2539502 -0.51479447 0.09016053 0.20597096
000010 71 5d 93 bf a9 a8 c3 c0 e2 76 9c 3e 55 40 0d bf
       -1.1512891 -6.1143384 0.3055945 -0.5517629
000020 d6 cc a6 40 72 a3 20 be fc d7 cc bc 66 a0 8d c0
       5.2125044 -0.1568735 -0.025005333 -4.42583
000030 f1 42 53 c1 72 dc a0 bd 90 03 c1 3f 26 92 e2 bf
       -13.203843 -0.078545466 1.5079212 -1.7700851
000040 9d 5e be 3e 09 72 06 bf 75 77 0e 3f 1b 71 da 3e
       0.3718156 -0.52517754 0.55651027 0.42664418
000050 fc 83 97 3f ef ae 93 bf 49 80 0f 3f 43 be 89 bf
       1.1837153 -1.153776 0.5605512 -1.0761188
000060 b9 70 88 3f e0 97 00 bf 15 87 6a 3e 36 96 9f 3f
       1.06594 -0.5023174 0.22903092 1.2467716
000070 1e 84 be bd 63 61 9a be 7d 5f 2b be 2e e7 71 3e
       -0.09302543 -0.30152425 -0.16735645 0.23623344
000080 06 96 87 be 93 d5 56 bf e8 3d 75 bf b4 c0 33 be
       -0.26481646 -0.8391964 -0.95797586 -0.17553979
000090 f8 aa f9 be 86 32 4c be b1 d5 1a 3e 3b 6d 0a bf
       -0.4876325 -0.19941148 0.1512058 -0.5407292
0000a0 13 cb 1e bf 7a c8 7b bf 8e af 0b bf 51 e3 08 3f
       -0.62028617 -0.9835278 -0.5456475 0.5347186
0000b0 38 3e 8f 3f 69 1f 58 be ed 38 c7 3f 0e bf 8d bf
       1.1190863 -0.21105732 1.5564247 -1.107393
0000c0 e9 38 b1 be 00 01 d5 bd 48 ca 04 be a8 f5 82 3f
       -0.34613732 -0.10400581 -0.12967789 1.0231218
0000d0 71 c2 5a bf 0f f2 ef 40 72 3d 06 bf 37 cd d3 3f
       -0.85452944 7.498298 -0.5243751 1.6547002
0000e0 e2 4b 3e c0 b6 45 00 bf c6 a7 f1 be a6 f5 b0 40
       -2.9733815 -0.5010637 -0.47198313 5.5299864
0000f0 4e 2b 55 41 5b 1a c4 3e 08 69 c9 bf 6d 93 67 3f
       13.323072 0.38301358 -1.5735178 0.9045933
000100 47 79 85 bf ec 7e b4 be 67 fd a0 3e 06 03 02 c0
       -1.0427636 -0.35253084 0.3144333 -2.0314345
000110 4b e9 69 3e 01 dc 5b 40 93 81 93 bf d6 0e 20 bf
       0.228429 3.435303 -1.1523918 -0.6252264
000120 02 19 1a bf 34 ce 22 bf e7 2c 92 be 34 b5 1d bc
       -0.6019441 -0.6359589 -0.28549883 -0.009625722
000130 7e 44 e5 be 3b 69 f1 bc d0 0f 9e be ed 28 17 3f
       -0.44778818 -0.029469123 -0.3087144 0.5904682
000140 34 1a 58 bf e7 57 3e 3f 29 3b 0d be 33 9c 34 bd
       -0.8441498 0.7435288 -0.13792099 -0.044094276
000150 c6 c6 4c 3d d6 1a d3 bd 50 c3 fb be 05 ff 89 3d
       0.049994253 -0.10307853 -0.4917245 0.06738094
000160 9c f2 c6 3e c9 a5 ac bd be e3 85 bd bc 74 26 bf
       0.3885697 -0.084300585 -0.06537579 -0.6502187
000170 87 14 62 bf 91 5a 06 3f 86 a4 c0 3e db 2a f3 bd
       -0.8831257 0.52481943 0.3762552 -0.118734084
000180 d0 fb 9e bf 67 8b 1f be 9d fa 18 bf ea 56 84 3f
       -1.2420597 -0.15580522 -0.59757406 1.0339024
000190 23 ff 70 3e 66 48 38 3f 31 ec 91 be 9e c2 1a bf
       0.23534827 0.7198547 -0.28500512 -0.6045321
0001a0 5b 5f 8b bf c0 7c fe be b1 5e 9b bf 47 d8 d3 bc
       -1.0888475 -0.49704552 -1.2138273 -0.025859965
0001b0 a6 53 9d 3f ac 12 37 3e 64 f1 9e 3f 6b e7 8c be
       1.2291152 0.17878217 1.2417417 -0.27520308
0001c0 7c 47 1c c0 5f e9 d5 3d 77 c2 01 bf 5b ef 8e bf
       -2.441863 0.10444903 -0.50687355 -1.1166795
0001d0 e6 93 8a bf 8a b3 3e 3f c6 76 27 bf 73 76 79 3e
       -1.0826385 0.74492705 -0.6541561 0.24361591
0001e0 ab 39 b9 3f 6f 9c 47 bf 25 1d 11 bc 53 be ae 3f
       1.4470724 -0.77973074 -0.008857046 1.3651832
0001f0 96 2a 6c bf 7f 0c 14 3e 73 00 bb bd 97 0f 5d 3f
       -0.9225248 0.14457892 -0.09130945 0.86351913
000200 81 2e f2 be 9c 28 6b be 49 a5 be bf 03 e4 05 be
       -0.47301105 -0.2296471 -1.4894191 -0.13075261
000210 37 af 46 3f 58 49 17 bf b4 04 75 3d cd bd cb 3e
       0.77611107 -0.5909629 0.05981894 0.39793244
000220 fc 35 c4 3e a2 76 82 bf 35 02 71 3f 59 1d c5 bf
       0.38322437 -1.0192454 0.9414399 -1.5399581
000230 82 fd 7f be 13 02 6b be 95 29 d1 be 60 44 6c bf
       -0.2499905 -0.2295001 -0.40852037 -0.9229183
000240 83 46 91 3e 65 b5 42 bf 6d 1f 57 3e 2d 06 7b 3e
       0.2837411 -0.76058036 0.21008082 0.24514075
000250 7b d1 2c bf c2 fc 85 bd 90 e9 25 3f 8c 1b c4 3d
       -0.6750714 -0.0654235 0.64809513 0.09575567
000260 b0 ec 11 40 4a cd 75 3e 16 2e 44 bf 1d 59 89 3e
       2.2800713 0.24004093 -0.7663282 0.268258
000270 c2 4a 0c 3d a2 44 51 3f 47 64 1e 3f b7 30 d8 bf
       0.034250982 0.8174535 0.6187176 -1.6889867
000280 f9 a4 09 3d b8 1d 15 bf 5e af 83 bd cb f8 8a bf
       0.033604596 -0.5824847 -0.06429933 -1.0857176
000290 bf a3 96 3f 74 eb 25 be c6 b2 8a bf 03 65 75 bf
       1.1768721 -0.162031 -1.0835807 -0.95857257
0002a0 67 77 c7 3e 34 2d b3 bf 30 f5 65 be 27 a6 28 bf
       0.38958284 -1.399817 -0.22456813 -0.6587853
0002b0 2d 1e d6 bf 62 23 a0 3e 8c ea fc 3e b9 57 a9 be
       -1.6727959 0.31276995 0.49397695 -0.3307474
0002c0 84 f5 4f 3d 30 a4 90 bf c7 64 d9 bf 21 a3 0b be
       0.05077125 -1.1300106 -1.698388 -0.13636447
0002d0 4b 97 24 3f b4 f7 c6 3c bb 7f c0 3e bd 64 55 be
       0.64293355 0.024288036 0.3759745 -0.2083921
0002e0 d3 be 13 bf ba d9 ed 3f e6 cb 31 40 f0 29 92 c0
       -0.5771305 1.858207 2.77807 -4.5676193
0002f0 f4 9c 1e bd 37 a7 1d be fc 2f 8a bf 78 d3 85 40
       -0.0387239 -0.15395819 -1.0795894 4.182064
000300 cc 96 d4 3e d8 df d2 bf 6b a4 33 bf fa 73 36 3e
       0.415213 -1.6474562 -0.70172757 0.17817679
000310 45 c7 24 bf e4 48 09 3e f7 0b 2e c0 de 13 2d 3e
       -0.6436656 0.13406712 -2.7194803 0.1690211
000320 0d 92 81 bf d9 8f b0 bf 32 ab 15 bf df b4 dc bd
       -1.0122696 -1.3793899 -0.5846435 -0.10776686
000330 2b 2f d6 3e 02 39 55 bf e7 23 ab bf db 57 4b 3f
       0.4183286 -0.8329011 -1.3370332 0.7943093
000340 6b f0 48 3e 76 57 d6 be 34 48 7a 3e d0 5f 08 c0
       0.19622962 -0.41863602 0.24441606 -2.130848
000350 96 67 56 c0 cb ee 2e be 79 30 eb bd 4d 3a 0c bf
       -3.3500724 -0.1708328 -0.11483855 -0.5477646
000360 8c 0c c7 bf b1 15 ea be 85 a0 87 be c4 6b aa 3d
       -1.5550704 -0.45719674 -0.26489654 0.08321336
000370 0f ac 32 bc cb 2d 5d 3d 00 77 47 bf e1 88 cc 3e
       -0.01090528 0.05399875 -0.77915955 0.3994818
000380 f7 8e 59 be 8c c1 9d be 4f ec 1b be 13 ec 3b bd
       -0.21245943 -0.30811727 -0.15226863 -0.045879435
000390 f7 93 e4 3c 2e 6b a1 40 a6 ae 69 3e 9e 6e 7c be
       0.027902586 5.0443335 0.2282053 -0.24651572
0003a0 57 90 d4 bd 25 f0 2a bd 96 b3 23 bc 8a 8a 2c 3f
       -0.10379093 -0.041732926 -0.009991547 0.67398894
0003b0 4b a8 9f bc 97 fc 6d 3c e4 a5 23 be ba c1 b7 bc
       -0.019489428 0.014525554 -0.15981251 -0.022431243
0003c0 af a9 99 be 13 57 36 bf 24 54 20 3e e1 47 f5 3e
       -0.3001227 -0.71226615 0.15657097 0.47906402
0003d0 63 a4 57 bf e0 6f 13 3d ae 1f 19 c0 a4 13 de 3f
       -0.8423521 0.035995364 -2.3925586 1.7349744
0003e0 28 4f 39 bf 84 b5 12 bf 68 18 9f be e8 42 cb bd
       -0.7238641 -0.5730822 -0.31073308 -0.09924871
0003f0 d0 02 37 be de 75 01 c0 64 c9 6c bd 8d 7e 77 bd
       -0.17872167 -2.022819 -0.05780925 -0.060423423

feats.0.VA1.conv_1.bias f4 [12]
000000 c5 c1 16 bf ed 56 9e 3f 0d 31 79 3e df 46 4c be
       -0.5888942 1.2370278 0.24335118 -0.1994891
000010 8d cc 9d 3f d0 ef d5 3e f6 7a 55 bf 0c 37 e8 be
       1.2328049 0.41784525 -0.8339075 -0.45354497
000020 8c f3 9f 3e 93 bb 38 3e 16 4b f3 3e e7 78 6e 3e
       0.312405 0.18040304 0.47518224 0.23288308

feats.0.VA1.pw1.weight f4 [48, 24, 1, 1]
000000 18 52 27 bf 27 51 b7 3e 9f e9 17 bf 61 41 a3 bd
       -0.6535964 0.35804102 -0.5934085 -0.079714544
000010 cf 0e 81 bd 5e a6 58 be 84 fb d1 be 28 ad 80 bd
       -0.06301653 -0.21157214 -0.41012204 -0.06283027
000020 f7 64 2a 3f 88 d4 86 be 66 16 61 be 98 ad 84 be
       0.6656031 -0.26334023 -0.219812 -0.25913692
000030 3f 57 b0 3d 03 98 18 3d ee 9c d4 be 29 61 14 be
       0.08610391 0.037254345 -0.41525978 -0.14490189
000040 3c e6 a8 3e f2 cb 53 bd c3 14 8e bf 70 48 c8 be
       0.32988155 -0.05170817 -1.1100086 -0.39117765
000050 7d a8 77 bf be a5 87 be 77 30 a4 bd 92 d6 cd 3e
       -0.9674147 -0.2649364 -0.080170564 0.40202767
000060 7a b5 26 bd af 8a 07 3e 77 99 79 be 80 16 33 3e
       -0.040700413 0.13236497 -0.24374948 0.17489052
000070 c7 b0 80 3c aa 08 f9 bd d7 ea 74 bd a9 34 70 bf
       0.015709294 -0.12159856 -0.059794273 -0.93830353
000080 0c 82 10 3f c3 ab 9f be 38 2d 68 3c d8 92 d8 3d
       0.56448436 -0.3118573 0.014170937 0.10574883
000090 2f a2 3c bf 0c 4a 8a 3d 93 e4 8f be 2c f4 d2 3d
       -0.7368497 0.067524046 -0.28104076 0.10300478
0000a0 bd 02 61 bf d8 99 52 be b9 49 99 be c9 45 9a 3e
       -0.87894803 -0.20566499 -0.29939058 0.30131367
0000b0 08 1d 4b bc 74 52 4b be de 13 07 3f 08 87 1d bf
       -0.012397058 -0.19855672 0.5276469 -0.61534166
0000c0 29 39 1e bf 37 dc a6 bf 04 ba 45 bf c8 79 80 be
       -0.6180597 -1.3035954 -0.7723696 -0.25092912
0000d0 04 2a fe 3e 3c a0 20 c0 3f 2b 82 be 48 a4 37 bf
       0.4964143 -2.50978 -0.2542362 -0.7173505
0000e0 d7 bf e6 3f 39 b3 81 3d 8a d1 84 3f 4e 38 99 3e
       1.8027295 0.06333012 1.0376446 0.2992577
0000f0 bd 3a 6e 3e 75 d3 4c bf e7 5e 10 be bd a4 90 3e
       0.23264594 -0.8001016 -0.14098702 0.28250685
000100 e5 07 36 bd 0c 2f 1a 3f 45 43 28 c0 15 cc b1 3e
       -0.044441123 0.6022804 -2.6291058 0.34726015
000110 d8 a9 9d be f9 62 b1 be 68 b9 e7 3c 6d 87 2e 3f
       -0.30793643 -0.34645823 0.02828665 0.68175393
000120 2f 6b 4d 3f f5 1e 7d 3d 4f 76 7e bf 59 2c ec 3e
       0.80241674 0.0617971 -0.99399275 0.46127585
000130 fa eb 76 bf d3 8c f3 3d 01 81 dc be 75 67 6c bf
       -0.9645382 0.118920945 -0.43067172 -0.9234536
000140 a5 ed e4 be 86 bb 67 3e ec b2 c2 bd 15 77 c0 3e
       -0.44712558 0.22630128 -0.09506783 0.37590852
000150 4a 61 10 be 27 0e 96 bd 6b 8d e6 3f 5d 93 33 3e
       -0.14099613 -0.07326918 1.8011907 0.17536683
000160 96 70 c2 bf b8 6e 12 bf 44 6e b3 be 2a 55 ea 3e
       -1.5190609 -0.57200193 -0.35045063 0.457681
000170 90 c9 49 be 20 b0 63 3e 4f 59 14 3f 8d 2a 90 bf
       -0.19705796 0.22235155 0.57948774 -1.1262985
000180 9c c4 52 be 33 46 d7 be 17 ac 81 be cb ce 00 3f
       -0.20582813 -0.42045745 -0.25326607 0.5031554
000190 d3 8b b0 be f3 85 0d 3f 3a bc f8 3f ea d2 21 bf
       -0.34481677 0.55282515 1.9432442 -0.63212454
0001a0 ab bf 8d be f4 a1 00 3d 63 77 be 3e 27 e5 de be
       -0.27685294 0.03140445 0.3720046 -0.43534204
0001b0 9c 49 a6 3e 6b cf 7d 3d 75 f5 53 3f a0 55 82 3c
       0.32478034 0.061965387 0.8279641 0.01590997
0001c0 29 0a 54 bf 8e 88 85 be 3e 10 5c 3e e6 98 96 3c
       -0.82828003 -0.26080745 0.21490571 0.018383455
0001d0 5c 61 44 3f c0 8b 5a 3e be f8 55 3f 28 da 58 bf
       0.7671106 0.21342373 0.83582675 -0.8470788
0001e0 10 7a 23 c0 d8 4e cc 3e b0 b3 85 3f ba 00 11 3e
       -2.554325 0.39903903 1.0445461 0.14160433
0001f0 63 f8 15 40 bd 5c cf 3d d6 35 03 40 ed 4c 95 3f
       2.3432853 0.1012511 2.050161 1.1664101
000200 28 2f 41 3d e1 35 59 bf 85 09 a4 bf 88 43 85 3f
       0.047164112 -0.8484784 -1.2815405 1.0411234
000210 d3 b9 93 3f ab c0 49 c0 c3 10 0c c0 86 6a 92 3e
       1.1541084 -3.1523845 -2.188523 0.28596896
000220 69 18 e4 3f 9a 9a af 3f 53 26 98 3f 92 ae a6 3d
       1.7819949 1.3719056 1.1886696 0.081387654
000230 41 9c 09 be d2 54 d0 3e be 50 23 bf af 98 f1 3f
       -0.13438512 0.40689713 -0.6379508 1.887472
000240 54 e0 c9 3e 71 e9 80 bf 87 9b 0d bf bb 58 54 bf
       0.3942896 -1.0071241 -0.5531544 -0.8294789
000250 d3 97 cc be 9b d7 77 bf 85 8b d6 3e 18 ea 50 be
       -0.39959583 -0.9681336 0.4190332 -0.204018
000260 b8 f5 07 3f b3 01 10 3d 18 bc 58 3f 82 db b6 be
       0.5310931 0.03515787 0.8466201 -0.35714346
000270 f3 61 f1 bd 50 ff c6 3f 85 02 83 be eb 3a 99 bf
       -0.117862605 1.5546665 -0.2558786 -1.1971105
000280 03 12 5c 3e 4b e1 7e be 16 54 77 bf da d0 c3 be
       0.21491246 -0.2489063 -0.9661268 -0.3824528
000290 07 0f 49 3f 95 4c 63 bf 4f ac 4f be ce 01 3c bf
       0.78538555 -0.8878873 -0.20280574 -0.73440254
0002a0 67 9e 38 be b5 0d 32 3f 6d b9 73 3d e5 e5 5a 3f
       -0.18029176 0.69552165 0.059503008 0.8550704
0002b0 d1 5d 9b 3e 7d c0 b7 3e 7c d7 43 3f f8 66 36 be
       0.30345014 0.35889044 0.7650068 -0.17812717
0002c0 4f 93 07 3f a9 79 19 3e 8a 10 43 bf a7 f4 aa bd
       0.5295915 0.14987816 -0.7619711 -0.08347445
0002d0 71 91 07 3e 4d 64 3e bd 6e 91 65 3d b1 4d 94 bd
       0.13239075 -0.046482373 0.056046896 -0.07241381
0002e0 8e 75 b0 bd 16 13 02 be e8 f6 c2 be ce 08 49 3e
       -0.08616172 -0.12702593 -0.38079 0.19632265
0002f0 22 c2 1f bf 83 5f 29 3e aa 83 20 3e 26 18 8e be
       -0.624056 0.16540341 0.15675226 -0.277528
000300 f2 f6 e8 3e 16 16 bf 3e d2 d9 10 bf 70 ab 03 3f
       0.45500904 0.37321538 -0.5658237 0.5143347
000310 24 7c ba bf b6 54 34 40 99 b4 e9 be 9a 79 55 3e
       -1.4569135 2.8176703 -0.45645598 0.20847169
000320 42 56 12 3d 29 0e 15 bf 1d 9d 98 bf 72 ab d9 3f
       0.035726793 -0.5822473 -1.1922947 1.7005446
000330 6e de 23 bf fb 6d c8 3e e2 7a 8d bf f0 cf a9 3f
       -0.64011276 0.39146408 -1.1053126 1.3266582
000340 50 c3 89 bf 24 13 83 bf ed 63 a4 bf bf d3 14 bf
       -1.076273 -1.0240216 -1.2842995 -0.581356
000350 a8 af 29 bf da e7 a8 bf ca 46 cd 3f 46 6d 75 3f
       -0.66283655 -1.3195755 1.6037228 0.95869863
000360 3f 29 dc 3e ce fc 21 c0 bd 75 9e 3f 3f 5e 48 40
       0.43000218 -2.531055 1.2379681 3.1307523
000370 f7 1f 3d c0 83 31 3e 3f e6 e1 e7 3f 4f ce 8c be
       -2.955076 0.742943 1.8115814 -0.2750115
000380 3c 66 52 3f 56 63 65 bf 0e e2 b6 bf dd 3c d0 3f
       0.8218725 -0.896047 -1.4287736 1.6268574
000390 09 f8 47 40 df 69 d7 3f 7b bf 69 bf 52 33 73 c1
       3.1245139 1.6829184 -0.913078 -15.200029
0003a0 5a ea 9f bf 48 7a dd be 55 6e e1 3d 60 34 88 3e
       -1.2493393 -0.43257356 0.11007372 0.2660246
0003b0 b1 2c 1c bf 5c 55 1b 41 7b c7 2a c0 c7 d8 24 3f
       -0.61005694 9.70834 -2.6684253 0.64393276
0003c0 57 2d 5b 40 59 8d 7b bf 69 0f a4 40 ef fd 37 41
       3.4246423 -0.98262554 5.126881 11.4994955
0003d0 32 db 7f c0 d6 16 6d 3f d8 b1 30 40 64 9f 59 3f
       -3.9977536 0.9261297 2.7608547 0.85008836
0003e0 f9 2e 24 c0 8a c7 44 41 aa f8 d8 3f c7 eb 31 c0
       -2.565367 12.298716 1.6950886 -2.7800157
0003f0 46 5f fb c0 4e ec 46 be ec 01 1f 40 c3 61 8d bd
       -7.85538 -0.1942608 2.4844923 -0.06903412

feats.0.VA1.pw2.weight f4 [12, 24, 1, 1]
000000 df bb 86 be 09 d0 84 be ba 8f d1 3e 0c e9 07 3f
       -0.2631521 -0.25939968 0.40929967 0.53089976
000010 71 10 88 bf 8d 65 7b 3e a5 e6 10 3c 48 1f df bd
       -1.0630018 0.24550457 0.008844052 -0.10894638
000020 f8 dc 3a 3f 53 52 b7 bd 49 6d 33 bf 8a 67 a2 3f
       0.7299342 -0.08951249 -0.7008863 1.2687848
000030 25 f4 42 be 0b d1 a5 3f 49 38 a3 3d 53 94 9d bd
       -0.19038446 1.295442 0.0796972 -0.07694306
000040 06 87 f5 3d e0 29 24 bf 2c 02 68 3f 43 ef ed 3e
       0.11988644 -0.64126396 0.90628314 0.46471605
000050 c4 c0 91 bf 73 08 6c 3d 57 22 33 bf 87 b1 a3 3f
       -1.1386952 0.057625245 -0.69974273 1.2788552
000060 ae 49 95 3f 9a 8a d1 bd c2 61 22 3d bb 2e d9 be
       1.166311 -0.10231514 0.03964401 -0.42418465
000070 70 86 47 3e 87 bd ff 3c 39 24 6e 3d b4 76 bf bd
       0.19484878 0.031218303 0.058140013 -0.09348813
000080 38 c6 23 bf 2a fd a3 3d ac a5 49 3e f0 f3 7a bf
       -0.6397433 0.080072716 0.19692105 -0.9802847
000090 4c 9d 3f be 68 95 02 be 4b a8 85 be 0d 3e 13 3e
       -0.18712348 -0.12752306 -0.2610496 0.14379139
0000a0 f4 78 47 3f db a0 08 be ee 07 4e 3f 3e 20 df 3e
       0.77918935 -0.13342611 0.8048085 0.43579286
0000b0 87 2b b5 be f9 e2 2d 3e ec cd 9e bf a1 94 1b 3f
       -0.3538477 0.16981114 -1.2406592 0.60773665
0000c0 86 64 ee 3f c7 74 19 3a a2 a8 83 3e 50 27 2c 3e
       1.8624427 0.0005853888 0.25714594 0.16811872
0000d0 dc dc ad be 8d 7b f7 3e 88 a7 8a 3f 05 b9 6b be
       -0.33957565 0.4833645 1.0832376 -0.23019798
0000e0 ed 55 1d bf c9 75 d3 3c bc 99 b0 3f ef 6d b1 bf
       -0.6145924 0.025813 1.3796916 -1.3861674
0000f0 91 e3 95 bf b6 48 11 bf d3 a5 21 3f b7 c5 ee 3d
       -1.1710073 -0.56751573 0.6314365 0.11658805
000100 87 e8 65 3e ad 01 b6 3e 94 a1 84 be d2 2e 58 bf
       0.22451983 0.35548154 -0.25904524 -0.8444644
000110 c2 47 c1 3d 75 1c 5f 3e 09 64 0d be b5 2f 5b be
       0.09437515 0.21788199 -0.13807692 -0.21404918
000120 50 7e c5 be 4a 98 b9 3f 35 7d 9e 3e a4 b1 07 bf
       -0.3857293 1.44996 0.309549 -0.53005433
000130 5e 5a eb 3e 90 c5 a3 3e 9b df 0c be cb d2 dd bf
       0.45967382 0.31986666 -0.13757174 -1.7329954
000140 ee 7d 65 be 63 73 63 bd b5 2d 71 3f 77 61 01 bd
       -0.2241132 -0.055529963 0.9421037 -0.03158709
000150 53 78 16 bf 4e d3 23 be fd 0e 7e be 7f 51 d8 bd
       -0.5877735 -0.15998575 -0.24810405 -0.10562419
000160 25 bb b4 3a a6 45 99 bf 68 65 60 bf 6a e2 01 bf
       0.0013788684 -1.197438 -0.87654734 -0.50736105
000170 b7 0f 35 bf 39 3e a7 3e 02 ea 36 3f 79 ed ec 3e
       -0.70727104 0.3266466 0.7145082 0.46274927
000180 86 f7 94 be 2a 1d cd be 25 04 c3 3f 2a fb 30 40
       -0.29095095 -0.40061313 1.523564 2.7653298
000190 ab fd 9c 3f a8 ed 35 c0 86 09 8a bf 83 3d 7e bf
       1.2264913 -2.8426304 -1.0784156 -0.9931261
0001a0 39 df 14 3f 90 89 2b bf 17 fc af 3f 33 5f 67 3f
       0.5815311 -0.6700678 1.3748807 0.9037964
0001b0 ce d1 0f 40 94 c2 9e be c5 42 9f bd 6e 20 cf 3e
       2.2471805 -0.31007826 -0.07776407 0.4045443
0001c0 f4 08 e1 3e 84 bc 85 be f1 89 1c 3f b8 f7 20 40
       0.43952143 -0.26120389 0.6114798 2.5151196
0001d0 9c 27 8a bf b0 9a 83 bf 89 2d ac 3f 52 69 8c 3f
       -1.0793338 -1.0281582 1.3451396 1.0969641
0001e0 45 a4 47 bd bf db d1 3e bc 59 4c bd 94 34 90 be
       -0.048740644 0.40987965 -0.049890265 -0.28165114
0001f0 31 95 b0 3e 22 d5 80 bd 44 f6 9e be aa 70 50 3e
       0.34488824 -0.06290652 -0.3104726 0.20355478
000200 f6 43 f9 3e ac f5 cd bd 2d 8b d0 3d 86 39 7c 3f
       0.48684663 -0.10056624 0.10182796 0.98525274
000210 8e ac 85 3f 65 05 36 be 09 26 8b 3f 98 a3 c8 3d
       1.0443285 -0.17775495 1.0870982 0.09796828
000220 51 ff 00 bf 38 2b f1 be a4 6a d8 3e e1 bd 20 3f
       -0.5038958 -0.47103286 0.4226886 0.6278973
000230 b8 92 30 3f a8 40 aa be 16 bb ad bc 7c 28 47 3f
       0.68973875 -0.33252454 -0.021207374 0.7779615
000240 40 43 1f 40 ff 7f 8a bd 55 de 73 bd ff fe b8 bd
       2.4884796 -0.067626946 -0.059538204 -0.09033012
000250 bb 14 c2 3d a7 61 94 bd 71 50 6b 3e 65 e1 27 bf
       0.0947661 -0.07245188 0.22979905 -0.655783
000260 a2 fa c0 3e 58 3b 3a 3e 9b 25 82 be a0 f3 15 3d
       0.37691218 0.181867 -0.25419316 0.036609292
000270 ba 89 ce bd e3 0f d4 3e d0 28 76 be b8 2a b8 be
       -0.10084863 0.4141837 -0.24039006 -0.35970092
000280 6a f2 aa bc bf 41 fd bc 68 cf 08 bf 7b cd 5c be
       -0.020867545 -0.03091514 -0.53441477 -0.2156276
000290 f6 7f bc bd d0 6a 88 3e c0 28 cb 3e e1 58 d0 be
       -0.09204094 0.2664399 0.39679527 -0.4069281
0002a0 1b 0c 26 bf 8f 65 91 bf 0b 4f 8d 3e cc 22 3b be
       -0.6486222 -1.1359118 0.27599367 -0.18274993
0002b0 fd dd 0d 3f 05 8e 42 3a e7 4b d5 be 8a 38 8a bf
       0.5541685 0.0007421675 -0.4165947 -1.0798504
0002c0 42 82 0f 3e 2c 4e 31 3b 78 f5 0c 3f c1 82 68 3f
       0.14014533 0.002705465 0.55062056 0.90824515
0002d0 7f f7 8d bc 60 16 7b be 88 17 3b 3e b4 b0 09 be
       -0.01732993 -0.24520254 0.18270695 -0.13446313
0002e0 5c 57 03 3e 83 c0 96 3f 5c 92 91 3f cf 95 24 bf
       0.12826294 1.17775 1.137279 -0.6429109
0002f0 b7 da ec be 11 97 25 3e 5b b8 9b 3e 31 75 66 bf
       -0.46260616 0.16170909 0.3041409 -0.9002257
000300 ff d4 3d be 6d 42 d1 be 22 ba 8d 3d 0d e9 af be
       -0.18538283 -0.4087099 0.06920268 -0.3435749
000310 7d 1d 29 3e 69 cf 81 be 38 c3 0a 3f ca 2d b3 bf
       0.16515155 -0.25353554 0.5420413 -1.3998349
000320 72 d8 b6 be 6a c7 ad be 22 0c b7 3d fd fe 21 3f
       -0.3571201 -0.33941203 0.08937861 0.63279706
000330 d9 8e ca bf 61 29 c2 be d3 6a 0f 3f 85 5c 70 3e
       -1.5824844 -0.37922195 0.56022376 0.23472793
000340 5c e6 fd 3d e2 f7 50 be 91 f0 b0 be 28 64 ed 3f
       0.12397453 -0.2040706 -0.34558538 1.854619
000350 68 7e 4c bf 5e a7 45 3e fa 04 93 be 8d 4c a5 3c
       -0.7988038 0.19302127 -0.28714734 0.020178104
000360 a3 96 fa 3f e6 ef ab be 21 c8 98 bf 22 be bc bf
       1.9577221 -0.33581465 -1.1936074 -1.4745524
000370 c6 20 60 bf da 00 f2 3f f1 b9 a5 3e 94 1b 91 3e
       -0.8755001 1.890651 0.32368425 0.28341353
000380 eb 3e f8 be 80 0b 87 3f a4 c9 a6 3f f8 0d 1d 3f
       -0.48485503 1.0550385 1.3030286 0.6134944
000390 7c e4 23 c0 a2 0d 73 3e 41 4c 39 3f 56 cc 91 bf
       -2.5608206 0.2373567 0.7238198 -1.1390483
0003a0 45 78 3f bf 6a b0 ac 3d 28 4f 55 3e d8 e0 f1 3d
       -0.7479289 0.08432086 0.20830977 0.11810464
0003b0 e5 8d 89 3f 03 10 cf 3f 56 b3 02 3f 41 9f 23 3e
       1.0746428 1.6176761 0.51054895 0.1597872
0003c0 8a ad eb 3e ae 55 7e be 3f ee e4 bf 07 0f 2f be
       0.46030837 -0.24837372 -1.7885207 -0.17095576
0003d0 85 78 a9 3e cf 2f 00 bf 0b ef 88 3f 11 24 ac 3f
       0.33099762 -0.5007295 1.069795 1.3448507
0003e0 c1 20 e6 bf 50 17 2d 40 63 d7 fd be e4 bb 96 be
       -1.7978746 2.704548 -0.4957839 -0.29440224
0003f0 dc 62 11 be cd 79 52 3f ba fa bb 3e 8f d4 22 c0
       -0.14197868 0.82217103 0.36714727 -2.5442235

feats.0.VA1.LKA35.0.weight f4 [24, 1, 1, 5]
000000 84 d7 56 3e 25 e0 d4 be 01 74 9d be 15 a8 43 3e
       0.2098065 -0.4157726 -0.30752566 0.19107087
000010 91 1a 8a 3d 64 26 33 3e 6a 34 f9 bf 40 97 07 bc
       0.067433484 0.17495114 -1.946912 -0.008275807
000020 58 63 e8 3f a9 68 34 bc 7e 8d 67 3d 96 df 80 3e
       1.8155317 -0.011011281 0.05653142 0.25170583
000030 f5 c6 79 3f bf eb 89 3e 9c b6 69 3d d8 c8 d8 bc
       0.9756921 0.26937672 0.057058915 -0.026462957
000040 82 ca 27 3d 65 c3 ab bf 8f 98 5a bd a7 a5 5c bc
       0.04096461 -1.3419005 -0.053368147 -0.013467229
000050 87 fe 05 3d 3b b5 1d be 2c 1f 0d 40 4d b6 01 be
       0.03271344 -0.15401165 2.2050276 -0.12667198
000060 83 a6 04 3d a8 a0 da 3d 4a b5 94 be 15 db 6d 3f
       0.03238536 0.10675174 -0.29044563 0.9291242
000070 1a 3b d7 be 45 17 1b 3e 44 91 b1 3c bd d1 94 3e
       -0.42037278 0.15145595 0.021675713 0.29066268
000080 d2 b0 7a 3f 2f 4d 9f 3e f6 1f f1 bb e7 82 93 3d
       0.97926056 0.31113574 -0.0073585464 0.07202702
000090 72 27 0e bf 66 51 a0 bf f3 d1 f0 be 32 26 d1 3d
       -0.5552894 -1.2524841 -0.4703518 0.10212363
0000a0 ea a9 9f 3d 2c 74 2f 3e 37 bf ad bf 41 b7 34 3e
       0.077960804 0.1713416 -1.3573979 0.17648031
0000b0 3f 33 b2 3d be 27 64 3c 1d 8b 00 be 5a 97 94 bf
       0.08701181 0.013925491 -0.12553068 -1.1608689
0000c0 0e 4a 3f be 79 71 2e 3c cd f4 65 3d 54 2e bb 3e
       -0.18680593 0.010647171 0.056141663 0.36558783
0000d0 44 3f 03 3f 9a c3 a4 3e c5 f1 3d 3d 90 3f 5b bb
       0.5126841 0.32180482 0.046373148 -0.0033454634
0000e0 a4 88 0f be 1d 04 b1 be 4b 65 02 be fe 5b 09 3c
       -0.14016968 -0.3457345 -0.12733953 0.008383749
0000f0 27 da 2a 3f fc 66 33 3f 39 c1 9d bf fc 72 fe 3e
       0.66739124 0.70079017 -1.2324592 0.496971
000100 1d 44 d5 3e 2d 16 5b bd 35 b9 82 be da be 04 40
       0.4165353 -0.053487945 -0.25531927 2.0741487
000110 cf b0 a1 be 1e 64 0c be 57 99 39 bc 23 5b fa 3d
       -0.31580207 -0.13710067 -0.011328063 0.12224414
000120 ef 20 33 3f 85 0b 90 3d d1 97 cf bb a9 3a 2f be
       0.6997213 0.07033447 -0.0063352366 -0.17112221
000130 67 5e 13 3f 1e 18 1f c0 dd 39 fb 3e 8f 04 82 be
       0.5756592 -2.485847 0.49067584 -0.25394103
000140 18 87 98 bd 69 4c 9a bd 1c 63 11 3f e6 be a3 bd
       -0.07447642 -0.07534105 0.56791854 -0.07995395
000150 b9 55 9a bd 98 63 24 40 79 1e 4b 3e 2c f9 2c bd
       -0.075358815 2.5685787 0.19835843 -0.042229816
000160 d6 40 5f 3d 0d 33 b1 bc 2f d6 fb bd bf 26 24 be
       0.05450519 -0.021630788 -0.12296712 -0.16030405
000170 e8 f6 3d 3d 62 a7 5f 3f 80 53 28 40 a3 74 29 3e
       0.046378046 0.8736478 2.6300964 0.165484
000180 59 fb 40 be 16 df 5a 40 94 d5 cf be 34 c7 7c 3e
       -0.18845882 3.419866 -0.40592635 0.24685365
000190 89 26 06 be 1e bc 47 bf 42 db 2d c0 5f c6 4d bf
       -0.13100637 -0.7802142 -2.7165074 -0.80380815
0001a0 dc 51 e9 bd bf 5f 47 3a 51 e1 69 be 1f c7 8c be
       -0.113925666 0.0007605515 -0.22839858 -0.27495667
0001b0 e7 fb 52 be e4 ea 74 bd 16 92 40 be b4 df b9 be
       -0.20603906 -0.05979432 -0.18805727 -0.36303484
0001c0 d1 c1 ce be 30 43 ad be 27 12 98 be c0 94 10 3e
       -0.40382245 -0.33840322 -0.2970135 0.14119244
0001d0 aa 0e 83 be 66 5e 1d c0 a4 15 c8 be e8 3d bf be
       -0.25597125 -2.4588866 -0.3907901 -0.37351918

feats.0.VA1.LKA35.0.bias f4 [24]
000000 d2 33 ec bd 0c 98 1b 3d ab 13 94 3d d7 6e 84 3f
       -0.115333214 0.0379868 0.07230314 1.0346326
000010 56 f0 b7 3e db 1a 10 3e 14 8f c3 3d 04 f2 aa 3f
       0.3592555 0.14072745 0.09548774 1.3355107
000020 bf b0 af 3f b2 28 86 3f 9d b0 f7 3e 4c b2 c5 3f
       1.3725814 1.0481169 0.48376933 1.5445037
000030 3b 4e 2c be 63 75 9e be 2b c4 87 bf c8 14 76 3d
       -0.16826718 -0.30948934 -1.0606741 0.060078412
000040 2b 8f 9a bc db 64 f7 3e 1a 67 e7 3e 07 20 9a 3d
       -0.018867096 0.48319134 0.45195848 0.0752564
000050 63 ff 2f bf 36 da 6a 3e 17 f7 db 3f 4e 77 69 3c
       -0.68749064 0.22934803 1.7184781 0.014249636

feats.0.VA1.LKA35.1.weight f4 [24, 1, 1, 11]
000000 ef 5c 34 3c f5 29 17 3c 22 c1 b7 3c 2e 7a 38 3d
       0.011008485 0.009226312 0.02243096 0.045038395
000010 47 21 59 3d ac f0 9e bf fe 49 8d 3e c0 a0 8f 3d
       0.05301025 -1.2417197 0.27595514 0.070130825
000020 f3 09 b2 3c ca b8 75 bb 50 c0 c4 bc bd f7 06 bd
       0.02173326 -0.0037494176 -0.024017483 -0.032951105
000030 21 de b4 bc d8 e9 c1 bc 62 2f 03 bc 41 1a 35 3e
       -0.022078576 -0.023671076 -0.008006902 0.17685796
000040 bc 9e 10 40 eb ff ad 3d 57 bf ec 3b 96 0a f0 bb
       2.2596884 0.08496078 0.007224958 -0.0073254807
000050 c1 e2 0a bc 20 a3 23 bc 91 3f 4e bb cd 99 ea 3a
       -0.008476914 -0.0099876225 -0.0031470994 0.0017898619
000060 f3 10 88 bc da a1 09 3d c8 05 17 3c 63 9e f8 3f
       -0.016609645 0.03360162 0.009217687 1.9423336
000070 7e 1d 99 bb 7e df ef 3c ef ec 9f bc 66 3e 2d 3b
       -0.004672705 0.029281374 -0.019522158 0.0026434897
000080 02 8b 0c bc 1b d5 13 3c a3 85 0d 3c dd 92 82 3c
       -0.008578064 0.009022976 0.0086378185 0.01593917
000090 fa 97 8a 3c 71 de c9 3d 99 bd 1c 40 01 72 06 3d
       0.016918171 0.098568805 2.4490721 0.032823566
0000a0 59 74 d2 3c 5d c5 50 3a 4f ee 05 3c af 32 af 3c
       0.025690245 0.000796398 0.008174493 0.021386473
0000b0 ab 57 51 bc 09 8e cb bc eb 09 c2 bc fd 00 58 bd
       -0.012777249 -0.024848001 -0.02368637 -0.052735317
0000c0 9d 5e 9d bd 4c 0c 4d 40 3b e6 1d be 58 91 5c bd
       -0.07684062 3.2038755 -0.15419857 -0.053849548
0000d0 f0 24 29 bd 51 c7 e0 bc 14 d0 77 bc 82 90 9c 3b
       -0.041294992 -0.027438791 -0.015125293 0.004777969
0000e0 72 ac 59 bc e3 87 82 bc c6 61 8f bc 61 c2 e5 bc
       -0.013285743 -0.015933936 -0.017502677 -0.028046789
0000f0 37 37 56 bf 4a 54 47 3d 79 ec 61 3a 16 02 a6 3c
       -0.83678 0.04866437 0.0008618306 0.020264667
000100 43 bd f1 3b 34 e6 2e bb 06 b7 48 3c f3 f1 91 bc
       0.007377298 -0.0026687505 0.012250667 -0.017815566
000110 5f ac e0 3c 73 3a 3d bd 80 a8 04 3e 30 ea dc bf
       0.027425943 -0.04619832 0.12954903 -1.7258968
000120 71 0d 21 3e 13 36 b4 bc a9 c3 07 3d c6 8c 07 bd
       0.15727784 -0.02199844 0.03314558 -0.033093236
000130 01 fa c4 3c 06 f7 56 3d dd ec 7e 3d 22 8f 5f 3d
       0.024044992 0.052481674 0.06223761 0.05457986
000140 ba 1e 8a 3d ad 82 0e 3e 08 04 23 c0 b7 9f d4 3d
       0.06744142 0.13917036 -2.547121 0.10382026
000150 7e 5c ad 3d 8b 3c 76 3d e0 ed 58 3d de 52 61 3d
       0.08464907 0.060116332 0.05296123 0.05501067
000160 04 77 14 bc 05 36 3d bc 60 ba 95 bc 06 f1 25 bc
       -0.009061579 -0.011548524 -0.018277347 -0.010128265
000170 67 52 0e bd a7 ff 12 40 2e 1d 19 bd 59 74 b5 bc
       -0.034746554 2.2968538 -0.037381344 -0.022150205
000180 77 5d 4e bc bf d0 3c bc d3 c9 39 bc 67 bb 53 bb
       -0.012595526 -0.011524378 -0.011339623 -0.0032307745
000190 6c a5 db 3b 07 0a 27 bb 02 8b d8 3b 12 b2 51 3c
       0.0067030694 -0.0025488154 0.006608368 0.012798803
0001a0 c0 55 02 c0 2f 51 82 3c 1d d6 9c 3b 3e 9a 3e bb
       -2.0364838 0.015907852 0.0047862665 -0.0029083635
0001b0 36 71 a1 3b 0a e2 2d 3a 6c 7e 34 3d 5d 40 17 3d
       0.004926826 0.0006633109 0.044065878 0.036926616
0001c0 39 2b 42 3d c9 e1 b6 3d ed d1 6e 3e ca e1 bb 3f
       0.0474045 0.08929784 0.23322268 1.467828
0001d0 15 3b 87 3e 1d f5 b9 3d 3d af 4e 3d b6 fe 1f 3d
       0.26412264 0.09079955 0.05046009 0.03906127
0001e0 f2 e5 5c 3d 8e d9 28 3d 23 fa be 3c 92 5b 89 3c
       0.05393023 0.0412231 0.023312634 0.016767297
0001f0 63 f9 f6 3c 46 e9 96 3d 21 40 97 bf 04 77 44 3d
       0.030148214 0.07368712 -1.1816446 0.047965065
000200 eb 02 ed 3a 45 14 11 b8 ac d1 ba 3c 0a 3c 96 3c
       0.0018082535 -3.458957e-05 0.022805057 0.018339176
000210 65 71 c4 3e 68 31 0f 3e 07 98 80 3e a2 fe 7a 3e
       0.38367763 0.1398369 0.25115988 0.24511197
000220 22 d0 57 3e dd 92 89 bf 16 8a 09 3f 88 1f 65 3e
       0.2107549 -1.0747944 0.5372633 0.2237531
000230 a4 16 89 3e 90 4d 24 3e c5 4c 98 3e 49 fa 98 3d
       0.26775086 0.16045213 0.2974607 0.07469613
000240 d2 5d 5a 3d 0c 86 b7 3c 6f 55 9f 3d f2 e6 fe 3d
       0.05331213 0.022402786 0.07779967 0.12446393
000250 7a 85 0f c0 55 44 c5 bd ed 8d c1 3d 05 95 3d 3c
       -2.2425218 -0.09632174 0.09450898 0.011571174
000260 ec 95 b6 3c dc 07 01 3d 50 84 2f 3d 95 88 ea 3c
       0.022288285 0.031501636 0.042850792 0.02862958
000270 d8 19 37 3d 9f d3 75 3d 6e 18 3c 3e 32 1c 0b c0
       0.04470238 0.06001627 0.18368694 -2.173596
000280 5d 40 9c 3e c2 94 a4 3d 92 69 60 3d 3b 74 1d 3d
       0.30517855 0.08036186 0.05478818 0.038440924
000290 cb 5d 2f 3d 0e 69 8b bc d0 11 b3 bc 21 44 a5 bc
       0.042814057 -0.017017867 -0.02185908 -0.020174088
0002a0 e5 08 d7 bc aa 53 1c 3d e3 d3 1d c0 1a 74 94 3c
       -0.026249358 0.038165726 -2.4660575 0.018121768
0002b0 a5 95 c3 bc 6a 77 b1 bc 9e aa b8 bc 5e 7b b0 bc
       -0.023875067 -0.021663386 -0.022542294 -0.021543201
0002c0 69 6c 88 bb af eb 9d bb 8b 88 4a bb 04 7f 65 3a
       -0.004163314 -0.0048193554 -0.003090414 0.00087545835
0002d0 ad 17 47 ba 4c 74 35 3f ea 6a 74 bb 53 1d f1 38
       -0.00075947755 0.7088058 -0.003729517 0.000114972376
0002e0 44 09 75 bb 43 0d d2 ba 0b b7 04 bb bf 30 19 3d
       -0.0037389556 -0.0016025681 -0.0020250704 0.037400004
0002f0 a8 f4 29 3d 42 29 4e 3d 88 73 63 3d 7d 63 ab 3d
       0.041493088 0.050332315 0.0555301 0.08368585
000300 00 ef 07 3e b0 f3 7b c0 0e 0b 4d 3d a8 a8 44 3c
       0.13274765 -3.9367485 0.05005937 0.012003101
000310 36 61 18 3d 24 17 1c 3c 20 2f 26 be f0 bd 06 be
       0.037202083 0.0095270015 -0.16228914 -0.13158393
000320 68 27 98 be 20 28 55 bf b9 31 4e c0 e2 5c ac bd
       -0.29717565 -0.8326435 -3.2217848 -0.084161535
000330 6e 31 38 3b ea fb 0f bd 03 64 2b bd 94 c4 52 bd
       0.0028105634 -0.035152353 -0.041843425 -0.051457003
000340 42 7e cc bc b6 73 c6 bc e0 28 34 bd 13 74 c3 bc
       -0.024962548 -0.024225097 -0.043984294 -0.02385906
000350 54 81 6a bd 1a 3f bc 3d 16 4d 47 c0 ae ec 87 3c
       -0.057252243 0.09191723 -3.11408 0.01659235
000360 2a fc 8c bd 63 46 97 bc f5 99 51 bd ec b2 32 bd
       -0.06884034 -0.01846618 -0.051172215 -0.043627664
000370 11 0d 69 3c f2 43 b2 3b 7f 90 3d 3c 28 ef bd 3c
       0.014224307 0.0054402286 0.011570095 0.023185328
000380 11 f9 93 3d de 26 80 40 d9 7b 9f 3d ec 0d c8 3c
       0.0722524 4.0047445 0.07787294 0.024420701
000390 6d 14 14 3c bd 5d 19 bb 06 28 a0 3b dd 67 2a bc
       0.009038073 -0.002340182 0.0048875837 -0.0104007395
0003a0 0e bc 9a bc d0 1c 36 bc 70 c8 13 bd b8 46 b5 3d
       -0.0188885 -0.011115268 -0.036079824 0.08851379
0003b0 02 5d 52 bf eb db e7 bb 81 f1 b5 bc 7b b1 89 bc
       -0.8217317 -0.007075777 -0.022209885 -0.016808262
0003c0 0b e5 88 bc 4b a2 bf bc 28 11 1e 3d b2 ce 1d bd
       -0.016710779 -0.023392817 0.03859058 -0.038527198
0003d0 ac 90 12 3c 3d 3d 39 bd 9c 5d 4b 3e e5 c9 88 3f
       0.008945625 -0.045224417 0.19859928 1.0686613
0003e0 6a d7 87 3e 53 79 45 bd 52 a8 ef bb 85 b7 82 bd
       0.26531535 -0.048211407 -0.0073137665 -0.0638266
0003f0 ee b3 7f 3c fb 6d 2b bc df 50 05 bc e4 6d 78 bc
       0.015606863 -0.010463233 -0.008136957 -0.015162919

feats.0.VA1.LKA35.1.bias f4 [24]
000000 cd 30 46 bf a6 cd 28 3c 95 f7 95 3e a8 c2 7b 3f
       -0.77418214 0.010302937 0.29290453 0.98343897
000010 77 c9 fe 39 36 46 1b 40 c8 43 0c bd 5f 30 95 be
       0.00048596758 2.4261603 -0.03424433 -0.29138467
000020 2d 94 04 3c 98 36 a7 bf 3c 6c f5 be 7e de bf bf
       0.0080919685 -1.3063536 -0.4793414 -1.4989774
000030 76 28 c2 3e 16 0b c5 be fb ba 68 be 81 ab 93 be
       0.37921494 -0.3848502 -0.22727577 -0.28841785
000040 b2 7f ce bf 72 c1 f7 3d d4 37 36 be 6b ef 75 3f
       -1.613272 0.12097444 -0.17794734 0.9606845
000050 6c 1d e4 bd 25 e1 cc bf 48 ab d7 3e 67 df 12 be
       -0.11138424 -1.6006209 0.42122865 -0.14343034

feats.0.VA1.LKA35.2.weight f4 [24, 1, 5, 1]
000000 7b 74 fa 3b d2 2d 61 3d cc fd 63 3f 2b 87 f0 bd
       0.00764328 0.05497534 0.8905914 -0.11744531
000010 f6 82 2a 3d be 34 92 3e 84 54 43 bf aa 2e 2f bf
       0.0416288 0.28555864 -0.76300836 -0.6843058
000020 6a 45 0a 3f 97 30 9d be d0 80 cb be 66 ab 82 bf
       0.5401217 -0.30701134 -0.39746714 -1.0208557
000030 40 9b 9d 3f 9a be 80 3e 52 d1 9c 3b c3 49 21 3f
       1.2313004 0.25145417 0.004785695 0.63003176
000040 b3 84 03 40 60 02 af 3e 03 1a ac bc ae c8 00 3d
       2.0549743 0.341815 -0.021008497 0.031441383
000050 11 b4 3a 3b cb 94 84 bc 2d 30 c8 3d 78 c4 6f bf
       0.0028488676 -0.016184231 0.09774814 -0.9365916
000060 4f 9b c9 3f b1 2a 85 be b2 d1 7d 3f e0 02 9b bf
       1.5750521 -0.26009133 0.99148095 -1.2110252
000070 a9 bf fa 3e c3 e9 3d bc af 43 4b bf 23 92 ea be
       0.4897435 -0.011591378 -0.7940015 -0.45814618
000080 89 fa 25 3f 2f 4b 39 3f b4 73 53 3b e3 d3 46 3f
       0.6483541 0.72380346 0.003226501 0.77667063
000090 3e 6e 77 3e 05 cc 97 bf 83 3d 08 bf 01 77 df 3d
       0.24163148 -1.1859137 -0.5321886 0.1091137
0000a0 b5 b5 16 bd 74 15 8b bf 06 8b 81 3f 0f ac 8e be
       -0.036794383 -1.0865922 1.0120552 -0.27865645
0000b0 58 ab 8c 3d 37 7f 0a 3e 82 23 89 3f 34 a4 90 bf
       0.06868619 0.13525091 1.0713961 -1.1300111
0000c0 6b 4f 25 be 4d 18 dc 3c fb f3 81 bd 9b 96 97 be
       -0.16143577 0.026867056 -0.06345364 -0.2960709
0000d0 75 e6 2b bf 47 12 9d be a4 80 86 bd 81 18 96 3e
       -0.67148525 -0.30678007 -0.06567505 0.2931557
0000e0 3f 32 a6 3f 1f 8c 83 bf f8 93 f6 bd 95 3f 07 be
       1.2984084 -1.0277137 -0.120399415 -0.13207848
0000f0 7c 4f 8d 3e 6f 76 8c be 4c 55 8c 3f f0 54 61 bf
       0.27599704 -0.27434108 1.096353 -0.8802023
000100 23 22 2c 3e 1f 60 94 be 68 d8 fb be 71 62 22 bf
       0.16809897 -0.28979585 -0.49188542 -0.6343146
000110 0b 7d ec be 00 81 b9 3c 7c 21 01 bd cc 2d df 3d
       -0.4618915 0.02264452 -0.031526074 0.10897407
000120 1a 5d 21 3f 1d a1 09 3e 24 7b 97 3c 81 a8 7a 3e
       0.63032687 0.13440366 0.018491335 0.24478342
000130 66 6b f2 be b8 ea b9 3f 34 6e a2 be 75 7d c0 3d
       -0.47347564 1.4524755 -0.31724703 0.09398929
000140 9b 7e b3 bd 45 28 0f 3d 20 d2 c3 3f fc ab fe bd
       -0.087643825 0.034950513 1.52985 -0.12435147
000150 6e 75 ba bd 93 65 1b 3d fe 3b 73 3e 79 0f 62 3f
       -0.09104429 0.037938666 0.23753354 0.8830486
000160 06 86 2c 3e 2b 2b cd 3a b0 55 8e bc 93 fc 95 3d
       0.16848001 0.0015653124 -0.017374843 0.07323565
000170 c7 1e 63 bf c2 a9 9e bd 93 fa 47 bd ba 1b 68 bd
       -0.8871884 -0.077472225 -0.04882295 -0.056667067
000180 ce d5 84 be b9 36 1a bf 5d 5b f4 3f cd 2e 02 be
       -0.2594437 -0.6023975 1.9090382 -0.12713166
000190 3d c0 b0 3e f1 86 c5 3f 7c 2d ae bf 66 1f ba be
       0.34521666 1.5431806 -1.3607631 -0.3635208
0001a0 cc 4a bc bd 55 07 9a be be b0 9d bf bd e3 a7 bc
       -0.09193954 -0.3008372 -1.2319562 -0.020494336
0001b0 1f d5 a3 bd 73 b7 ed 3d ec 83 9e 3d 68 57 9b bd
       -0.07999634 0.11607256 0.07740006 -0.07585031
0001c0 d7 ba a4 3e 4b 12 ff 3d 5b 0d 23 3e ea 9b 86 3b
       0.32173797 0.12454661 0.15923063 0.004107942
0001d0 51 78 52 be b1 c4 99 bf 1d f3 9e bd d6 a1 b7 bc
       -0.2055371 -1.201315 -0.07761214 -0.022416037
